snapshots/Epoch_1_Iter_120.pth (torch, 322894 bytes, 14 tensors)

e_conv1.weight f4 [32, 3, 3, 3]
-0.03564334 -0.0044233077 0.03811595 -0.04559393 0.023335371 -0.030633593 4.006856e-05 -0.028950665
-0.004037605 -0.02205915 -0.014406007 -0.014181018 -0.011890202 0.014304845 0.02417608 0.030968964
-0.021244984 -0.02565046 -0.031242248 0.02292811 -0.009615534 -0.009437164 -0.0034845958 -0.029577153
-0.016708078 0.007132567 -0.008589068 0.010755611 -0.022099536 -0.020856688 0.053327397 0.028043652
-0.014639517 -0.012183598 -0.026535751 0.01086534 0.024440035 -0.03460328 0.0019617477 -0.011384452
-0.014048003 0.0077018673 0.011226448 0.019476144 -0.0014113759 -0.0154989995 0.026562266 0.0011830152
0.0152460225 -0.022972355 -0.011765963 0.015296973 0.03976437 0.021318734 -0.0032791642 -0.020008087
-0.003808289 -0.0037880163 -0.0004918712 -0.017361358 0.0027526598 0.011250749 0.001359888 0.011797103
0.0049432493 0.012472521 0.0118920775 -0.020647334 -0.0009085369 -0.0043331557 0.015970454 -0.015467376
-0.0012533481 0.018593166 -0.015928613 -0.021497741 -0.008381397 -0.023574922 -0.0057693096 0.0061033387
0.004275128 -0.04925964 0.034959566 0.03577741 0.0017922545 0.0040810555 0.0074754325 0.0065775644
0.0022294729 0.0048336443 0.018730087 -0.003156463 0.014732356 -0.02911329 0.025258662 0.0001712042
-0.015659496 0.00857524 -0.008743341 -0.004446961 0.0018395801 -0.033258185 -0.019960841 0.010606675
0.023026662 -0.025439726 0.015503541 0.013141052 -0.0013550159 -0.03501482 -0.008902658 -0.03614206
0.003259047 -0.020304093 0.0043629953 -0.014394777 -0.032816943 0.023468927 -0.011514292 0.010855049
0.018532172 0.012048524 -0.018585803 -0.044783324 -0.0010077391 0.015162377 0.03947562 -0.0190665
0.009501051 -0.030281546 0.0032255016 -0.02873333 -0.004140422 -0.01157876 0.004066932 -0.02011278
-0.001556004 -0.009061839 0.01999687 -0.008724862 -0.0034780626 -0.0043175756 0.0028612248 0.0071685743
0.0026250074 -0.024214951 0.0067028785 0.014695559 0.007082183 -0.0057884846 0.004186067 0.0071741203
0.006003331 -0.020907942 -0.043632902 -0.022975877 -0.00010291599 -0.02640238 -0.0239045 -0.026625175
0.009699191 -0.0042806794 -0.0024473462 0.0119174495 -0.0031172656 0.0149692 0.00912145 0.00934751
0.017638374 -0.023503637 -0.0023101901 -0.012954837 -0.0022780856 0.00047521046 0.00079317356 -0.00014646917
-0.024157867 -0.0032171195 0.002581117 -0.0016223673 -0.0014871112 -0.0007113403 0.004666421 -8.9771704e-05
-9.157556e-05 -0.007939538 0.00056538713 -0.0018697871 -0.0051788017 0.0010215146 -5.454482e-06 0.008911809
0.025104512 0.0018735209 3.3619706e-06 1.3053545e-07 -6.035689e-06 5.830792e-07 7.3125684e-06 -0.015279957
-9.3683675e-06 0.031336997 0.002364441 -0.042067587 -0.000121546786 0.0017467946 0.0015943706 0.004791988
0.001111693 -8.726662e-06 0.004535596 0.015901754 1.5707163e-07 -0.011844235 -0.0030857197 0.004211211
1.7782623e-06 -0.0021011098 7.4597324e-07 -0.0038256084 1.9957233e-06 -0.0067507722 -0.005728698 0.019440265
-0.015922941 -0.014483503 -0.0034083766 0.0001063445 0.013008279 5.3368453e-06 0.005702154 -0.0055967653
-0.00031947915 -0.005469231 0.0017099268 -8.243053e-06 -0.00024865835 -0.021668075 0.0077773067 0.02589022
-0.002322082 0.01623921 0.009284493 0.0017857627 -0.00014001738 -0.031809356 0.0024828403 -7.3491865e-05
0.0022394108 5.4667453e-06 0.0015885897 0.027631892 6.406932e-06 -6.245052e-08 5.267565e-06 -0.030250842
00000000: c0fe 11bd 65f1 90bb 781f 1c3d b3c0 3abd
00000010: d229 bf3c 4df3 fabc 4a0f 2838 f229 edbc
00000020: e34d 84bb 64b5 b4bc 2c07 6cbc 8057 68bc
00000030: 1fcf 42bc de5e 6a3c ea0c c63c a0b2 fd3c
00000040: f609 aebc ea20 d2bc beef ffbc bbd3 bb3c
00000050: 798a 1dbc 569e 1abc d15d 64bb c94b f2bc
00000060: 61df 88bc 4fb8 e93b 2ab9 0cbc 4d38 303c
00000070: 160a b5bc a5db aabc d46d 5a3d cdbb e53c
00000080: 96da 6fbc b79d 47bc 8161 d9bc 8a04 323c
00000090: 7836 c83c 2bbc 0dbd aa90 003b da85 3abc
000000a0: 9829 66bc f25f fc3b 23ef 373c 6f8c 9f3c
000000b0: ebfd b8ba 84ef 7dbc 1c99 d93c 670f 9b3a
000000c0: 74ca 793c 8530 bcbc 07c6 40bc 28a0 7a3c
000000d0: f7df 223d a0a4 ae3c 3fe7 56bb 00e8 a3bc
000000e0: 7d94 79bb 5e40 78bb ebf0 00ba 6839 8ebc
000000f0: f865 343b 1055 383c 453e b23a a348 413c
00000100: fbfa a13b 8b59 4c3c fdd6 423c 9924 a9bc
00000110: e12a 6eba 25fd 8dbb 78d4 823c e16a 7dbc
00000120: 6247 a4ba b250 983c b97c 82bc 081c b0bc
00000130: 2152 09bc 3220 c1bc 7a0c bdbb 84fe c73b
00000140: 5f16 8c3b 7ac4 49bd c331 0f3d 558b 123d
00000150: 15ea ea3a 60ba 853b 79f4 f43b 9c88 d73b
00000160: 591c 123b 8c63 9e3b d76f 993c a9dc 4ebb
00000170: fb5f 713c ff7e eebc 41eb ce3c 4785 3339
00000180: 5848 80bc 2a7f 0c3c 3b40 0fbc d0b7 91bb
00000190: 111e f13a bc39 08bd eb84 a3bc 9fc7 2d3c
000001a0: 69a2 bc3c f966 d0bc 9002 7e3c 914d 573c
000001b0: ca9a b1ba b36b 0fbd 74dc 11bc b209 14bd
000001c0: bc95 553b c554 a6bc 75f7 8e3b 12d8 6bbc
000001d0: 0f6b 06bd e841 c03c 71a6 3cbc 60d9 313c
000001e0: c8d0 973c 2c67 453c 4141 98bc b86e 37bd
000001f0: 1d16 84ba 9e6b 783c 30b1 213d 5931 9cbc
00000200: 4caa 1b3c 0111 f8bc f062 533b 2962 ebbc
00000210: 61ac 87bb d7b4 3dbc e643 853b 8fc3 a4bc
00000220: d5f2 cbba 1c78 14bc 7ad0 a33c b9f2 0ebc
00000230: 35f0 63bb 737a 8dbb 6383 3b3b 5ce6 ea3b
00000240: 5108 2c3b 6f5e c6bc d2a3 db3b a4c5 703c
00000250: a811 e83b 54ad bdbb 462b 893b e214 eb3b
00000260: 97b7 c43b 2247 abbc 6ab8 32bd e837 bcbc
00000270: 9ad4 d7b8 ce49 d8bc 5fd3 c3bc 0a1d dabc
00000280: 5be9 1e3c f144 8cbb a863 20bb 6841 433c
00000290: 0a4b 4cbb 6041 753c 2272 153c 4c26 193c
000002a0: 5a7e 903c b38a c0bc 8f66 17bb 8640 54bc
000002b0: ef4b 15bb ab25 f939 faec 4f3a 8595 19b9
000002c0: b8e6 c5bc 4fd6 52bb f527 293b 9da5 d4ba
000002d0: 2ceb c2ba 3d79 3aba c7e8 983b d143 bcb8
000002e0: 410c c0b8 d614 02bc 7d36 143a a513 f5ba
000002f0: f0b2 a9bb 58e4 853a a505 b7b6 d602 123c
00000300: faa7 cd3c ee90 f53a 379e 6136 5029 0c34
00000310: 2c86 cab6 e684 1c35 7c5e f536 c958 7abc
00000320: d52c 1db7 395b 003d bdf4 1a3b 104f 2cbd
00000330: efe6 feb8 b3f4 e43a 33fa d03a 1c06 9d3b
00000340: 3ab6 913a ba68 12b7 569f 943b 6544 823c
00000350: 85a7 2834 520e 42bc c939 4abb 33fe 893b
00000360: a1ac ee35 c6b2 09bb e43e 4835 0fb7 7abb
00000370: 44ee 0536 9535 ddbb cdb7 bbbb 3141 9f3c
00000380: d470 82bc 374c 6dbc 125f 5fbb 4505 df38
00000390: ad20 553c 2713 b336 22d9 ba3b 1265 b7bb
000003a0: c47f a7b9 3c37 b3bb 9f1f e03a a54b 0ab7
000003b0: 5c5e 82b9 3f81 b1bc c7d8 fe3b ba17 d43c
000003c0: 122e 18bb 1708 853c fc1d 183c 4110 ea3a
000003d0: a1d1 12b9 874a 02bd 26b7 223b a51f 9ab8
000003e0: 14c3 123b fc6e b736 3a38 d03a 475c e23c
000003f0: 20fb d636 891c 86b3 0ac0 b036 9dd0 f7bc

e_conv1.bias f4 [32]
0.10428215 -0.09840439 0.023525063 -0.07422776 0.122330986 0.11194237 -0.02777385 -0.14214224
-0.17756605 -0.1743045 0.050286163 -0.057991844 0.08003057 -0.085938096 0.07583061 0.112592496
0.14536206 -0.08938181 -0.04738762 -0.043392926 -0.11719546 -0.124278605 -0.018177804 -0.03677241
-0.0057214606 0.099732555 -0.15177636 -0.041304927 -0.054269545 0.019120641 0.116286546 0.11466964
00000000: e191 d53d 3e88 c9bd a2b7 c03c b904 98bd
00000010: ab88 fa3d 0b42 e53d fc85 e3bc bc8d 11be
00000020: e0d3 35be e17c 32be ddf8 4d3d db88 6dbd
00000030: 11e7 a33d 5000 b0bd 144d 9b3d e596 e63d
00000040: cbd9 143e cf0d b7bd 8519 42bd c8bc 31bd
00000050: 2c04 f0bd c885 febd 9ee9 94bc ab9e 16bd
00000060: 177b bbbb 9540 cc3d 436b 1bbe 5b2f 29bd
00000070: be49 5ebd e4a2 9c3c a427 ee3d ebd7 ea3d

e_conv2.weight f4 [32, 32, 3, 3]
-0.01310863 0.0038087992 0.015113154 0.016546434 0.012591919 0.019308444 -0.01775139 -0.002871332
0.026033934 0.007714936 0.004994552 0.012398599 -5.5326454e-05 0.00039791776 -0.01816325 0.007601865
0.010097064 -0.017365394 0.0026077675 0.043285128 -0.0143169705 0.018306028 0.009412891 0.018873801
-0.011508945 3.7599402e-05 0.0053240494 0.021683492 0.005328359 0.03064319 0.026131416 0.00928626
0.006732393 0.025769144 0.009754401 -0.003286487 -0.019258194 0.019635199 0.0046755336 0.021357864
0.005369248 -0.0038642886 0.019980045 0.012237435 -0.02219655 0.018525893 -0.0024924572 -0.005856687
0.013266855 -0.0061372323 0.025774088 -0.0024440684 0.014629433 -0.00031697526 8.577216e-06 -2.2360056e-05
0.00910782 0.01518934 -0.006426792 9.294531e-07 -0.013481901 -0.009987459 4.184381e-06 3.378535e-06
-0.00025396672 0.014364145 -9.456504e-06 9.078089e-06 -3.396938e-05 -0.0149965985 1.8015378e-06 -3.809676e-06
0.009297501 0.0006345102 0.01038174 -0.004842294 -0.010637925 5.159731e-07 -0.002232601 -0.03509189
-0.018915704 9.352942e-07 -0.0074884654 -2.530074e-06 -0.0010942128 -1.6367332e-07 -5.111728e-07 0.06629875
0.0053790575 2.0659159e-06 0.012474512 0.009496061 0.03906235 0.006985968 -0.007778427 -0.02729166
-0.0072305296 0.023991376 -0.01041035 -0.009290409 -8.8054156e-05 -0.009602723 0.008986904 0.0016765903
-0.005798891 0.00090646476 0.022385014 0.011307507 0.028138917 0.02960137 0.0020460973 0.031256106
-0.012599054 0.029852375 0.0056254896 0.034716662 -0.0074550156 0.013268336 0.0014516722 0.012072143
3.177038e-06 0.0008099216 -0.011767308 2.363073e-06 0.002419742 2.1170109e-07 -0.0036848276 0.0362711
0.0015780462 0.007410627 0.006409152 0.03564562 0.0014692614 0.06870736 0.016590616 0.013090127
-0.008157302 -0.0053309156 -0.010771724 -0.027803706 0.024094244 0.0060290974 0.026013179 0.0066846744
0.016666746 0.03392539 0.021215118 -0.014136097 0.001380863 0.042979702 -0.0062503004 0.035239868
0.01715032 -0.001638269 0.025638852 -0.0033199182 -0.013897864 0.0009765862 -0.007594166 -0.009111763
0.013187947 -0.03496683 0.010820015 -0.034258284 0.009237854 -0.0067805755 -0.06193629 -0.031784795
0.0116175935 0.0077401767 -0.0013004547 -0.021334536 0.009189289 -0.016270658 0.00011408742 0.0041531585
-0.0007186887 0.001393521 0.013724617 0.008531899 1.0454762e-06 2.3199173e-06 0.012869324 -0.0048089083
0.014119267 -5.035351e-06 -0.0047541154 0.0035975634 -0.003275404 0.012943517 -0.004181288 -0.011520788
-0.0020558364 -0.005230032 0.0022093938 -0.0028590919 -0.026515309 -0.008466445 -0.0070256065 0.022030244
6.484653e-06 -0.027335213 0.006660398 2.5070754e-05 4.2950713e-05 -0.015067846 1.1903994e-05 0.007833336
0.036721587 0.0136881815 -0.008167011 0.029817406 -0.01471753 -0.006247615 0.0036085625 -0.0076120202
-0.0021470648 0.01667741 0.002728325 -0.02448431 0.027524132 0.0037166392 0.010076044 0.03592915
-0.02427202 -0.008722131 -0.030287277 0.00012484808 0.027299205 -0.011874555 0.01636136 0.025522808
0.030362368 -0.008473486 -0.01947074 0.004093056 -0.0005254948 0.0009245444 0.0024499178 -0.0023704509
-0.001208947 -0.002044619 0.00061808975 0.0011101902 -4.8305274e-06 -0.010254021 -0.0025167214 -0.012214337
-4.3176176e-05 -4.8665277e-07 0.0072897472 2.56971e-06 -4.933721e-07 0.018929908 -0.009849789 2.4152084e-07
00000000: 94c5 56bc 0c9d 793b 2a9d 773c 638c 873c
00000010: 564e 4e3c be2c 9e3c 5d6b 91bc f52c 3cbb
00000020: 1e45 d53c 93cd fc3b 57a9 a33b 7e23 4b3c
00000030: 540e 68b8 9e9f d039 19cb 94bc 1119 f93b
00000040: 286e 253c df41 8ebc 14e7 2a3b bf4b 313d
00000050: ba91 6abc 86f6 953c 8738 1a3c 3b9d 9a3c
00000060: 0490 3cbc 0db4 1d38 5d75 ae3b 94a1 b13c
00000070: 8499 ae3b 6d07 fb3c 8d11 d63c 6625 183c
00000080: 689b dc3b d019 d33c ecd0 1f3c 1a62 57bb
00000090: 5cc3 9dbc ffd9 a03c 3835 993b b0f6 ae3c
000000a0: 84f0 af3b 0140 7dbb 31ad a33c 867f 483c
000000b0: 8ad5 b5bc 9dc3 973c 7e58 23bb 74e9 bfbb
000000c0: 395d 593c d61a c9bb 2e24 d33c aa2c 20bb
000000d0: 4ab0 6f3c b32f a6b9 dde6 0f37 db91 bbb7
000000e0: f738 153c b6dc 783c d797 d2bb 887f 7935
000000f0: 31e3 5cbc 70a2 23bc 8f67 8c36 caba 6236
00000100: d626 85b9 9757 6b3c 60a7 1eb7 184e 1837
00000110: 587a 0eb8 4bb4 75bc 5ecc f135 bca9 7fb6
00000120: 8c54 183c 4255 263a 2c18 2a3c 1bac 9ebb
00000130: b14a 2ebc 6781 0a35 d450 12bb 83bc 0fbd
00000140: 1bf5 9abc ee10 7b35 cd61 f5bb 57ca 29b6
00000150: b06b 8fba 2ebe 2fb4 8737 09b5 a4c7 873d
00000160: ce42 b03b 2aa4 0a36 e561 4c3c 5e95 1b3c
00000170: d8ff 1f3d 8cea e43b 2de2 febb c292 dfbc
00000180: 14ee ecbb 9089 c43c 2c90 2abc cd36 18bc
00000190: b7a9 b8b8 bd54 1dbc cf3d 133c 09c1 db3a
000001a0: a004 bebb d29f 6d3a c760 b73c 1f43 393c
000001b0: 9683 e63c 937e f23c d117 063b 6706 003d
000001c0: 436c 4ebc f88c f43c 0756 b83b 0f33 0e3d
000001d0: 3449 f4bb 6f63 593c 0946 be3a 3dca 453c
000001e0: 1935 5536 eb50 543a abcb 40bc 4995 1e36
000001f0: 8994 1e3b f44f 6334 267d 71bb 0191 143d
00000200: 72d6 ce3a d8d4 f23b dd03 d23b 2401 123d
00000210: 3b94 c03a 72b6 8c3d 0be9 873c f977 563c
00000220: 34a6 05bc f6ae aebb e37b 30bc 99c4 e3bc
00000230: 4b61 c53c bc8f c53b 9719 d53c 1d0b db3b
00000240: b388 883c 5af5 0a3d 54cb ad3c 179b 67bc
00000250: 13fe b43a 7c0b 303d 52cf ccbb ae57 103d
00000260: d47e 8c3c 30bb d6ba 9208 d23c fc92 59bb
00000270: deb3 63bc cc00 803a 7bd8 f8bb 8149 15bc
00000280: 4212 583c 6139 0fbd 6f46 313c 6a52 0cbd
00000290: 5e5a 173c 972f debb e8b0 7dbd c630 02bd
000002a0: b857 3e3c 4fa1 fd3b 0574 aaba c4c5 aebc
000002b0: ac8e 163c 0b4a 85bc 3842 ef38 3817 883b
000002c0: 6266 3cba cea6 b63a 37dd 603c 61c9 0b3c
000002d0: 4a52 8c35 e0af 1b36 dbd9 523c 0c94 9dbb
000002e0: 8054 673c 56f5 a8b6 69c8 9bbb 19c5 6b3b
000002f0: 29a8 56bb 0c11 543c 3003 89bb b0c1 3cbc
00000300: 36bb 06bb b060 abbb 7acb 103b 9a5f 3bbb
00000310: a236 d9bc d8b6 0abc 0f37 e6bb c578 b43c
00000320: bf96 d936 19ee dfbc 783f da3b 094f d237
00000330: fa25 3438 20df 76bc 44b7 4737 6457 003c
00000340: 6069 163d 6544 603c edce 05bc a243 f43c
00000350: cc21 71bc cbb8 ccbb a27d 6c3b 416e f9bb
00000360: c5b5 0cbb 109f 883c b3cd 323b 5293 c8bc
00000370: 4a7a e13c dc92 733b fe15 253c 722a 133d
00000380: 1ed6 c6bc 45e7 0ebc 061d f8bc a7e9 0239
00000390: 95a2 df3c 7e8d 42bc 4208 863c 3515 d13c
000003a0: 80ba f83c 60d4 0abc 1a81 9fbc 0b1f 863b
000003b0: 5cc1 09ba 205d 723a cd8e 203b 9159 1bbb
000003c0: 8875 9eba 04ff 05bb 4d07 223a cd83 913a
000003d0: ea15 a2b6 7b00 28bc 94ef 24bb a41e 48bc
000003e0: 1118 35b8 86a2 02b5 d5de ee3b 4873 2c36
000003f0: 4670 04b5 e512 9b3c 0261 21bc 5faa 8134

e_conv2.bias f4 [32]
0.028809296 -0.01069361 -0.023899794 -0.0034611616 0.0173427 -0.042913947 -0.03709346 -0.0016181909
-0.011231894 -0.037531972 0.025295885 -0.033267885 0.060856655 0.03192564 -0.0048338394 -0.03320069
-0.0070121074 -0.04451932 -0.027882425 -0.03134105 0.008799726 0.008947679 0.022476926 -0.023768442
0.05291311 -0.0042629153 -0.032669604 0.009710501 -0.042785805 -0.027637094 0.012314432 0.05919475
00000000: 7901 ec3c 4034 2fbc 80c9 c3bc a8d4 62bb
00000010: 4712 8e3c 89c6 2fbd 50ef 17bd 7a19 d4ba
00000020: fa05 38bc 20bb 19bd 5139 cf3c e843 08bd
00000030: d444 793d 76c4 023d 2f65 9ebb 72fd 07bd
00000040: d2c5 e5bb e459 36bd af69 e4bc 795f 00bd
00000050: ba2c 103c 4999 123c 8821 b83c 09b6 c2bc
00000060: 6bbb 583d edaf 8bbb 90d0 05bd cb18 1f3c
00000070: 2b40 2fbd 3067 e2bc 79c2 493c 3276 723d

e_conv3.weight f4 [32, 32, 3, 3]
0.0039782138 -0.004296461 1.013242e-06 -0.00621708 0.011657975 0.0283646 3.6493311e-06 -0.01134669
0.00010841905 -9.327702e-06 0.020896655 -0.0010519682 0.0012662957 -0.019271879 -0.013193654 -3.230226e-07
1.0113446e-05 -2.2214335e-06 0.0029689118 2.956539e-07 0.020923948 -0.007827504 0.015244153 -0.020870423
3.5409457e-07 0.0033553266 -0.0069490373 0.0075800754 9.226658e-06 -0.0054545747 -0.00039442073 -0.003218506
0.0042265933 4.882887e-06 0.0010922052 0.0065371958 0.0032585105 0.018198326 -0.018025957 -3.1665502e-06
0.005506705 -0.00016068699 0.0012486486 0.0013137538 -0.017146276 0.01936767 -7.93342e-06 -0.00029930883
-0.0001437579 -2.422203e-05 0.009764015 -0.03056636 0.0031649633 0.01617601 0.01448806 -0.0018470973
0.013756989 -0.0025975825 -0.003292282 -0.016475148 0.010847614 0.028759878 -0.00035670798 0.0034463357
-0.03344274 -5.334668e-07 0.015583548 -0.020742213 -0.007144597 0.010240727 0.003770249 -1.4881299e-05
0.006777683 0.013831356 0.03443293 0.02480225 0.002466276 -0.01651987 -0.013736666 6.5851873e-06
0.01568749 -0.0032283992 0.008704459 -0.006421957 0.008119244 -0.021037478 1.7814027e-05 0.00012297249
0.002585131 -0.007869385 -0.027621485 -0.009950884 -0.03381301 1.7614888e-06 0.0005094675 -0.0027138023
-4.871488e-06 0.017714078 0.0012900665 -0.0029617061 0.004255911 -0.014333914 2.250931e-05 2.3723316e-05
0.012637201 -0.0007188191 3.1867523e-06 1.591974e-05 0.0016135859 0.0034434397 0.0072424174 -2.3283572e-05
-0.0014040985 -0.007881438 0.0013539507 2.0866917e-06 0.006367879 -0.00092841533 0.018034646 -0.010961477
-0.0154719725 -0.009011243 -0.021225821 -0.0136010675 -0.018472495 5.9837763e-05 0.00010094011 0.0016463087
0.009004507 -0.00016289578 0.02302448 -0.0018104024 -0.023673983 0.010400381 -0.0031659235 0.0020147865
8.5218875e-07 -0.0094472915 0.0010746316 -0.00018431536 -0.0072013093 0.020134967 0.005243626 0.009514659
-0.025684586 -0.0024465632 -0.03396231 0.0070279874 2.2675902e-05 -0.023996215 1.5204469e-06 0.0296668
-8.867218e-06 -0.009652932 -0.014777663 -1.0826959e-06 -0.018333301 3.5337525e-05 -2.4349898e-05 0.020349361
-1.9689662e-06 -0.0062762746 7.1057275e-07 -0.012601329 -0.015483857 0.00045300843 -0.0007023259 -0.008840283
0.00019421215 0.020065863 -0.020809937 0.013473627 0.008685497 -4.9393225e-07 0.007745941 -3.6407582e-05
-2.170333e-05 -0.0067726583 -0.0004223609 -5.8820893e-05 -0.013934704 0.006754867 -0.034487303 1.7342942e-05
-0.00044433583 -0.022282487 0.031623416 -4.9087907e-06 1.48351755e-05 1.1286212e-05 -0.042863082 1.8134308e-05
-0.022196533 -0.017846204 2.3599827e-05 9.362024e-06 -0.010486514 2.9340155e-08 0.0011376604 -0.024852807
-9.306534e-06 -0.001389506 -0.019847795 0.00035347338 9.3417875e-06 0.00020899833 0.00021065563 -4.0289456e-07
-0.00036186422 0.004745204 -0.00036656976 -0.026238313 4.449993e-06 0.007863895 0.0055176695 -0.006889683
-0.022665955 -5.668535e-06 0.0003604631 -1.8052002e-05 -0.0020112256 -4.9449154e-06 -0.0013369439 0.0018516362
0.032226983 -0.023150178 -0.008339111 0.020544207 -0.00021871367 0.00019430587 0.027553245 0.0025530597
0.012270954 -0.010855353 -0.0031225623 -1.6877113e-05 0.0013328916 -0.0014490786 5.307303e-06 0.0021456948
-0.021906551 0.01452691 -0.013482745 0.010576986 -0.02222451 -1.7184311e-05 0.0108237825 -4.7048545e-07
-0.010067074 0.0009178066 -0.0019171834 0.00075375487 3.7961383e-06 0.016623987 -0.015150841 -0.014040966
00000000: ad5b 823b 54c9 8cbb bbfe 8735 a6b8 cbbb
00000010: 1701 3f3c e15c e83c 08e7 7436 78e7 39bc
00000020: 095f e338 2d7e 1cb7 762f ab3c 32e2 89ba
00000030: d5f9 a53a 0fe0 9dbc 322a 58bc e36b adb4
00000040: ebac 2937 f013 15b6 1392 423b 5dba 9e34
00000050: b368 ab3c ee3e 00bc 9dc2 793c 73f8 aabc
00000060: 631a be34 0ae5 5b3b c0b4 e3bb 4862 f83b
00000070: 32cc 1a37 4abc b2bb 41ca ceb9 92ed 52bb
00000080: 3c7f 8a3b aed7 a336 5328 8f3a f935 d63b
00000090: bc8c 553b a814 953c 2cab 93bc eb80 54b6
000000a0: 9771 b43b 167e 28b9 b2a9 a33a 4332 ac3a
000000b0: 5976 8cbc f3a8 9e3c c819 05b7 8dec 9cb9
000000c0: b8bd 16b9 6a30 cbb7 3ff9 1f3c 4e66 fabc
000000d0: 466b 4f3b 8d83 843c 545f 6d3c 4d1a f2ba
000000e0: fe64 613c 343c 2abb 54c3 57bb e4f6 86bc
000000f0: 31ba 313c d699 eb3c 8904 bbb9 ebdb 613b
00000100: 41fb 08bd 8f33 0fb5 2352 7f3c 93eb a9bc
00000110: 391d eabb b9c8 273c 4816 773b b1aa 79b7
00000120: 5317 de3b e99c 623c 8b09 0d3d 172e cb3c
00000130: 3fa1 213b ae54 87bc c10f 61bc 54f6 dc36
00000140: 0d83 803c 8d93 53bb 269d 0e3c 486f d2bb
00000150: 9406 053c ca56 acbc 556f 9537 2df2 0039
00000160: 4d6b 293b 98ee 00bc 7446 e2bc 0809 23bc
00000170: 837f 0abd 4b6c ec35 c98d 053a 0cda 31bb
00000180: c375 a3b6 1d1d 913c 7317 a93a 2f19 42bb
00000190: 2b75 8b3b cbd8 6abc 60d2 bc37 6f01 c737
000001a0: 430c 4f3c 226f 3cba fddb 5536 628b 8537
000001b0: f57e d33a 55ab 613b cd51 ed3b 1751 c3b7
000001c0: ba09 b8ba 2621 01bc 0c77 b13a 1709 0c36
000001d0: a4a9 d03b e660 73ba 65bd 933c c497 33bc
000001e0: 287e 7dbc e4a3 13bc c6e1 adbc 03d7 5ebc
000001f0: a153 97bc 4ffa 7a38 cfaf d338 f4c8 d73a
00000200: a487 133c 01cf 2ab9 d69d bc3c 064b edba
00000210: f1ef c1bc 5c66 2a3c 627b 4fbb 820a 043b
00000220: f7c1 6435 d0c8 1abc a7da 8c3a c744 41b9
00000230: f6f8 ebbb 16f2 a43c b9d2 ab3b 5fe3 1b3c
00000240: 7b68 d2bc 8556 20bb 101c 0bbd 084b e63b
00000250: 2138 be37 b693 c4bc 2812 cc35 ca07 f33c
00000260: 69c4 14b7 5527 1ebc 031e 72bc 2651 91b5
00000270: b82f 96bc 6137 1438 0243 ccb7 b4b3 a63c
00000280: 9522 04b6 35a9 cdbb 30be 3e35 ce75 4ebc
00000290: 01b0 7dbc c381 ed39 4b1c 38ba d6d6 10bc
000002a0: 6da5 4b39 2a61 a43c 9a79 aabc 7dc0 5c3c
000002b0: 9d4d 0e3c c496 04b5 aad1 fd3b 58b4 18b8
000002c0: 8c0f b6b7 2ded ddbb 5270 ddb9 74b6 76b8
000002d0: 624e 64bc ee57 dd3b 8f42 0dbd af7b 9137
000002e0: bff5 e8b9 c389 b6bc 8e87 013d 31b6 a4b6
000002f0: 98e4 7837 e959 3d37 3391 2fbd 211f 9837
00000300: 81d5 b5bc 3432 92bc 3ef8 c537 9611 1d37
00000310: a1cf 2bbc af07 fc32 8c1d 953a 1d98 cbbc
00000320: 4223 1cb7 1620 b6ba d897 a2bc 6552 b939
00000330: acba 1c37 9026 5b39 71e3 5c39 684d d8b4
00000340: 98b8 bdb9 a87d 9b3b 2930 c0b9 bbf1 d6bc
00000350: 2651 9536 91d7 003c 91cd b43b dac2 e1bb
00000360: f4ad b9bc 5834 beb6 8afc bc39 616e 97b7
00000370: c4ce 03bb 80ec a5b6 653c afba 9ab2 f23a
00000380: 7100 043d 71a5 bdbc c4a0 08bc 534c a83c
00000390: 8156 65b9 96be 4b39 58b7 e13c 3c51 273b
000003a0: 1d0c 493c a7da 31bc e7a3 4cbb 5393 8db7
000003b0: 6cb4 ae3a 02ef bdba 6315 b236 c99e 0c3b
000003c0: 5e75 b3bc 4702 6e3c bbe6 5cbc 184b 2d3c
000003d0: 2d10 b6bc 0727 90b7 3c56 313c 0797 fcb4
000003e0: 5ef0 24bc f598 703a 004a fbba a297 453a
000003f0: 29c1 7e36 072f 883c 3c3b 78bc 140c 66bc

e_conv3.bias f4 [32]
-0.01705783 -0.03717021 0.045770004 -0.037993968 -0.025929233 0.026106568 -0.005693955 0.038272712
-0.014871137 0.006853425 0.04089752 0.017850382 0.026341554 0.00020947796 -0.019030841 -0.006863194
0.030118288 -0.015422417 0.045313966 -0.04661872 0.038945414 -0.011109633 -0.031507403 -0.045048416
0.0291283 0.0503978 -0.009048165 -0.0017133259 0.015315129 -0.026378626 -0.04188764 -0.032682072
00000000: ddbc 8bbc ca3f 18bd 5479 3b3d 909f 1bbd
00000010: 8b69 d4bc 71dd d53c 5b94 babb d9c3 1c3d
00000020: 12a6 73bc b292 e03b 2884 273d f73a 923c
00000030: 3eca d73c 50a7 5b39 91e6 9bbc a5e4 e0bb
00000040: a1ba f63c 4eae 7cbc 239b 393d 45f3 3ebd
00000050: 3a85 1f3d 2e05 36bc e80d 01bd b084 38bd
00000060: 799e ee3c ec6d 4e3d c13e 14bc ad91 e0ba
00000070: 4fec 7a3c fd17 d8bc 6092 2bbd a3dd 05bd

e_conv4.weight f4 [32, 32, 3, 3]
-7.2937155e-06 0.0005346309 0.0018996504 -0.0040135765 -0.014715067 -1.3960194e-07 0.00066868804 -0.0055863783
-0.008832899 0.002571609 0.009368906 -0.0041971486 -0.00042563048 0.007666435 0.003461234 0.013266562
-0.0022380347 0.029925343 -0.004427089 0.0005637678 0.008363689 0.006163781 0.021226432 0.033903476
-0.0040623737 -0.019486293 0.005584876 -2.1286128e-06 0.015310903 -0.002787176 -0.010660218 0.012251402
0.016379979 2.7110884e-06 -0.026670458 -0.00022692652 0.0012921873 0.015894286 -0.0006888661 0.0005256314
-0.0028895484 0.0020550222 -0.01181502 -0.014104551 0.0056430222 0.0442774 0.02394863 0.035429507
-0.021433964 0.0144880675 -0.0038298916 0.026515478 0.006772178 0.006304819 -0.00010134462 -9.155277e-06
0.02254221 0.014096466 -0.039650567 -0.0043670572 -0.0010203273 -0.011459436 0.010266589 0.0045828074
-0.010552688 0.0058394815 0.009908642 0.024442084 0.02868674 -0.0042842273 0.05441126 0.0013214422
0.0050138836 0.017342634 0.00406026 0.005503877 0.006124795 0.002562536 0.004487246 -0.017958133
-0.0009084456 0.0073752627 0.025707958 0.010843544 0.010990932 0.010213917 0.005009597 0.0211648
0.0018470174 0.023418069 0.025876224 0.03244902 0.012100757 0.020912105 0.0030820372 0.015184891
0.05986304 -0.0067148684 -0.027764266 -0.015298918 -0.007060487 -0.016501687 0.0047156885 -0.015514705
-0.011875629 -0.013699819 -0.005877488 -0.026108878 0.011194609 -0.0033649064 0.031140255 -0.007192124
0.029202033 0.012671861 0.0064933 0.012673548 0.01028408 0.0037944783 -0.009906548 -0.008729152
0.00475807 7.50979e-05 8.63101e-05 0.025758604 -0.014123422 -0.0147631345 0.032513913 -0.00083947583
-0.0110096 -0.016901672 0.008467476 0.015780553 -0.0077898027 -8.789074e-07 4.85309e-06 -0.002434469
0.012477588 -0.016684314 -0.013717462 -0.013828811 0.0035088698 -0.008984924 0.0023441918 -3.4791166e-05
-0.013529817 0.031714767 -0.015117148 0.021946643 -0.023886442 -0.013035433 -0.005415135 0.008820201
0.00610103 -0.013523826 -9.583557e-06 -8.62792e-06 -0.009716984 0.010119158 0.00019162174 0.018736197
0.016466722 -9.698529e-07 0.033582345 0.008981864 0.05325314 0.018220557 0.040530406 0.023570279
-0.012854409 0.012075443 0.024507556 -0.010950777 0.0064121126 -0.036121413 -8.789321e-06 0.03143375
0.0118675 0.020555925 2.5646134e-06 -0.02060785 0.025172371 -0.009260749 -0.025270008 0.042403366
0.01607621 -0.03914732 -0.0065810215 0.0009915794 0.04673846 -0.0035058716 -8.4407275e-06 1.7259825e-05
2.0893258e-07 8.4486135e-07 7.589771e-06 -2.3925084e-05 -1.5423387e-07 -0.00027736882 0.0035505379 -0.040379442
-0.00056750776 0.027793707 -0.0016071326 0.016150896 -0.006909503 0.006467449 0.02495929 0.0032929329
0.011996239 -0.0036350198 0.0013291476 0.006155587 -0.0016105575 0.025034178 -0.008579636 -2.392569e-06
0.018372951 0.017190738 0.01709647 0.033584766 0.0109112505 0.014569587 0.016775107 -0.0051264795
-0.001148939 0.0074890032 0.006911965 0.021755608 -0.029352767 0.017081795 0.0058088233 -0.0038172682
0.026163822 -0.0136572 -0.00895146 -0.020755252 -1.2458585e-07 0.010696071 -0.017820796 0.04800244
-1.091221e-06 0.022518903 0.032985665 1.8720382e-05 -0.03259614 -1.4812802e-06 -0.028816868 0.022266144
-0.004951781 0.023676742 -0.026126273 -0.002653285 -0.012850081 -0.02131121 -0.008117559 -0.025149053
00000000: 8abc f4b6 7926 0c3a b1fd f83a 5284 83bb
00000010: 7717 71bc 7de5 15b4 e54a 2f3a f00d b7bb
00000020: ddb7 10bc 7188 283b 0a80 193c 3c88 89bb
00000030: 2827 dfb9 b836 fb3b dfd5 623b fe5b 593c
00000040: feab 12bb fe25 f53c 1d11 91bb d1c9 133a
00000050: db07 093c 8bf9 c93b 0ee3 ad3c 5fde 0a3d
00000060: a91d 85bb b8a1 9fbc 5601 b73b 4ad9 0eb6
00000070: 95da 7a3c 0ea9 36bb 32a8 2ebc 1bba 483c
00000080: 4e2f 863c 25f0 3536 017c dabc 20f3 6db9
00000090: 9c5e a93a bc34 823c 0595 34ba 87ca 093a
000000a0: 945e 3dbb 8dad 063b c993 41bc c616 67bc
000000b0: 1ae9 b83b 385c 353d eb2f c43c 881e 113d
000000c0: 4896 afbc 5c5f 6d3c ebfe 7abb fd36 d93c
000000d0: 26e9 dd3b a898 ce3b fb88 d4b8 9e99 19b7
000000e0: 71aa b83c ddf4 663c a268 22bd 8819 8fbb
000000f0: 81bc 85ba 5cc0 3bbc 3235 283c 602b 963b
00000100: 2ee5 2cbc 1f59 bf3b db57 223c c43a c83c
00000110: 7400 eb3c b462 8cbb 57de 5e3d 3e34 ad3a
00000120: 814b a43b 2412 8e3c ee0b 853b de59 b43b
00000130: 81b2 c83b 38f0 273b bf09 933b ef1c 93bc
00000140: c124 6eba 30ac f13b 7f99 d23c 1fa9 313c
00000150: 4f13 343c 4658 273c 8c27 a43b cd61 ad3c
00000160: 9f17 f23a 40d7 bf3c 60fa d33c 43e9 043d
00000170: 4142 463c dd4f ab3c 01fc 493b 0dca 783c
00000180: f232 753d 6608 dcbb e371 e3bc 50a8 7abc
00000190: a85b e7bb 8c2e 87bc 1086 9a3b 6431 7ebc
000001a0: 0092 42bc 3575 60bc f197 c0bb 49e2 d5bc
000001b0: 9869 373c c385 5cbb d919 ff3c e9ab ebbb
000001c0: 1a39 ef3c a39d 4f3c c0c5 d43b b7a4 4f3c
000001d0: 8f7e 283c c8ac 783b 134f 22bc b804 0fbc
000001e0: 96e9 9b3b e17d 9d38 6201 b538 b503 d33c
000001f0: ed65 67bc 13e1 71bc 4f2d 053d 4510 5cba
00000200: 9c61 34bc 6075 8abc 2bbb 0a3c 3846 813c
00000210: 9a41 ffbb 0eee 6bb5 bad7 a236 9d8b 1fbb
00000220: cc6e 4c3c 8bad 88bc 35bf 60bc 3d92 62bc
00000230: 11f5 653b 8135 13bc 03a1 193b bbec 11b8
00000240: 2aac 5dbc 58e7 013d eaad 77bc 72c9 b33c
00000250: 80ad c3bc 9292 55bc 7271 b1bb 9b82 103c
00000260: 26eb c73b 0a93 5dbc 10c9 20b7 a2c0 10b7
00000270: fc33 1fbc d3ca 253c 12ee 4839 a77c 993c
00000280: 38e5 863c e42b 82b5 a48d 093d ab28 133c
00000290: f71f 5a3d 4743 953c 3603 263d 7516 c13c
000002a0: 4d9b 52bc 14d8 453c 12c4 c83c e36a 33bc
000002b0: b31c d23b 0cf4 13bd d975 13b7 adc0 003d
000002c0: e76f 423c e664 a83c b91b 2c36 cbd1 a8bc
000002d0: 4a36 ce3c 66ba 17bc 0c03 cfbc 27af 2d3d
000002e0: 42b2 833c f158 20bd 9ca5 d7bb e2f7 813a
000002f0: d470 3f3d c4c2 65bb a69c 0db7 31c9 9037
00000300: f356 6034 6eca 6235 a3ab fe36 bab2 c8b7
00000310: 7c9b 25b4 d06b 91b9 24b0 683b ea64 25bd
00000320: cdc4 14ba a1af e33c 6ca6 d2ba e24e 843c
00000330: 1d69 e2bb e5ec d33b 6d77 cc3c 3fce 573b
00000340: e08b 443c 8339 6ebb cb36 ae3a ceb4 c93b
00000350: 5819 d3ba 7a14 cd3c 9a91 0cbc 0690 20b6
00000360: df82 963c 97d3 8c3c e50d 8c3c 2e90 093d
00000370: 1ac5 323c 47b5 6e3c f36b 893c 07fc a7bb
00000380: ff97 96ba 5066 f53b c47d e23b d138 b23c
00000390: 3775 f0bc 1fef 8b3c f157 be3b 222b 7abb
000003a0: 8355 d63c 73c2 5fbc 25a9 12bc eb06 aabc
000003b0: e6c5 05b4 933e 2f3c ebfc 91bc 359e 443d
000003c0: 1176 92b5 9079 b83c fa1b 073d b709 9d37
000003d0: 8883 05bd 66d0 c6b5 5a11 ecbc 7d67 b63c
000003e0: 8d42 a2bb baf5 c13c c406 d6bc bce2 2dbb
000003f0: 2589 52bc d994 aebc 83ff 04bc 6305 cebc

e_conv4.bias f4 [32]
0.014131601 -0.008989192 0.027840625 -0.038068958 0.011306118 0.0017354345 -0.04293831 -0.010674295
0.003884705 0.037117384 0.024735153 -0.010859228 0.034618642 -0.041296285 -0.027969526 -0.011072313
0.054784175 0.03048527 -0.04606829 -0.027835676 -0.010238076 0.02679389 -0.016633285 0.00755126
-0.018355532 0.0003574536 -0.005762888 0.033729963 -0.009408135 0.024089232 -0.015110096 -0.0018900847
00000000: 3b88 673c 6747 13bc 0612 e43c 32ee 1bbd
00000010: 4c3d 393c 8577 e33a 15e0 2fbd 3de3 2ebc
00000020: 8996 7e3b 6608 183d 60a1 ca3c e7ea 31bc
00000030: 47cc 0d3d 4b26 29bd 5920 e5bc a668 35bc
00000040: 5f65 603d 3fbc f93c 1ab2 3cbd a507 e4bc
00000050: 9abd 27bc dc7e db3c 8742 88bc 8f70 f73b
00000060: 575e 96bc 9c68 bb39 9cd6 bcbb 6e28 0a3d
00000070: 9424 1abc c856 c53c 5690 77bc b8bc f7ba

e_conv5.weight f4 [32, 64, 3, 3]
-0.009130757 0.0042246175 -0.0041563627 -0.011166322 -9.88104e-07 -9.2414175e-06 0.0002695141 0.0063131205
0.027370602 0.007226145 -0.004480292 0.0122667635 0.000125806 0.002952075 -6.428523e-05 -8.426888e-06
0.029279623 0.0007216599 0.0029950792 -0.033092026 0.002882712 -0.004408289 -0.0005179932 -0.0006324773
-0.03671251 0.00834678 -0.0026447587 0.0013758352 -0.0056692613 1.3282515e-06 0.03647418 -0.00019143314
0.006988115 1.1554548e-07 -0.023025319 -8.6415064e-05 -0.0027747669 0.0070163887 0.01496634 0.012998716
2.2848656e-06 0.0020819427 1.130485e-07 0.01510789 -2.4399694e-06 0.0025278341 -0.001704622 0.011531283
0.0019863348 0.0065442706 0.008866565 -0.0008135498 -0.03296782 0.029221207 -3.2219918e-06 0.026994115
0.00029041475 0.03546084 -0.00844416 -0.020431926 3.1206176e-07 2.1897484e-05 -0.0035572825 0.0022256554
-0.0014580189 -0.0052689463 0.0014285414 0.0023216056 0.0010856307 0.01933566 0.007869946 0.010949857
0.0035487055 -0.0009417958 -0.028124293 -0.019043447 -0.0013303317 0.0013070488 0.019428939 0.019892434
-0.00423499 -0.005401553 0.0012741769 0.0040195757 0.013488359 0.002462584 0.0011181758 0.004543248
0.00039430466 -0.050680377 0.02790289 0.010562041 0.003645474 0.0019910145 0.020202206 0.0010556836
0.0010004143 0.00038568527 -0.014025413 -0.004279436 -0.0010621819 -0.008494039 -0.0017227128 -0.0016851166
-0.0020677617 0.03287782 0.026772724 0.0013991283 -0.013804262 -0.00019126006 -0.03708535 0.0019981177
0.0034796789 0.011539122 0.0022533073 -0.004592756 -0.0014673511 0.0005458846 0.003906626 0.015589991
-1.15145895e-05 -0.029946495 0.024299039 0.045007553 0.0060753985 0.00044084628 -0.0033434809 -0.03499932
-0.022627447 -2.3547068e-06 -0.019606987 0.0038814174 1.8173977e-06 -0.015902804 -9.077058e-06 -0.0012471289
2.7243943e-06 -0.001243894 -2.0056211e-06 -0.0071227625 0.028571768 0.015761605 -0.016746497 -2.2255547e-06
0.010433247 -0.018215653 -0.015100822 -0.0008769146 0.005263866 0.0008640743 -0.01273003 0.010392865
2.9313554e-05 0.016547015 1.5321562e-07 -7.466228e-07 0.0021242846 0.009771708 0.012786354 0.0033629816
-0.022145001 2.370705e-05 -0.0018173119 0.012197292 0.028302006 -0.00022535346 0.0047021834 0.004198348
-0.0060763718 -0.0039210804 -0.007676193 -2.4134624e-05 -3.1053568e-07 0.02085071 1.07635174e-07 -0.010674569
0.035271514 -0.013597253 -9.020738e-06 -0.0071045416 -0.012314288 0.011042159 0.013458344 0.012048966
0.024730451 0.008145363 0.0027177674 0.024567856 -0.01310756 3.3916803e-07 -0.020165497 0.0065496312
-0.008639933 0.0026965006 0.012893009 0.01012148 -0.0002228416 -0.0029018924 0.0062901974 -0.011541586
-0.0056275288 0.01454439 0.01199974 0.0015024813 -0.035466578 0.00055999745 0.0018071161 0.015412907
-0.0018774661 0.007558313 8.135238e-06 0.012845262 8.6999835e-06 0.0062981197 0.019125855 2.3344215e-05
0.002566348 0.00798497 0.0022471498 0.0025578798 0.012316835 0.00815253 0.03348942 -0.009635313
-0.0007603219 0.02071727 -0.005223243 0.00043051213 0.013848479 0.011621517 -0.0020248506 0.0008769873
0.0003702419 -0.0042511444 0.011046677 0.0074384557 0.026541404 -0.007543746 -5.2740343e-06 0.01048067
-0.019815316 0.01598117 -0.011113858 -0.0035651415 0.00014226086 -0.0008398397 0.015013282 0.0005950765
0.0030486952 0.002487845 -0.0010366581 0.0066293445 0.0028916153 0.0011228054 0.0054894984 0.005543489
00000000: 2c99 15bc a96e 8a3b 1932 88bb f3f2 36bc
00000010: ff9e 84b5 960b 1bb7 924d 8d39 4bde ce3b
00000020: 5038 e03c 4cc9 ec3b 6acf 92bb 89fa 483c
00000030: caea 0339 9a77 413b dfd0 86b8 3561 0db7
00000040: d2db ef3c c72d 3d3a 1749 443b 818b 07bd
00000050: e2eb 3c3b 6973 90bb efc9 07ba d5cc 25ba
00000060: db5f 16bd efc0 083c b053 2dbb 5e55 b43a
00000070: 36c5 b9bb 6046 b235 f365 153d 71bb 48b9
00000080: 8ffc e43b cd21 f833 989f bcbc bc39 b5b8
00000090: ddd8 35bb bce9 e53b 6135 753c 91f8 543c
000000a0: b155 1936 3471 083b 12c5 f233 1587 773c
000000b0: 5bbe 23b6 05aa 253b 9f6d dfba b5ed 3c3c
000000c0: 2b2d 023b 5271 d63b 1245 113c 6744 55ba
000000d0: 4409 07bd 5061 ef3c 6639 58b6 c322 dd3c
000000e0: cf42 9839 633f 113d 6059 0abc db60 a7bc
000000f0: 7189 a734 7db0 b737 4c21 69bb 4ddc 113b
00000100: ff1a bfba 20a7 acbb e53d bb3a 1426 183b
00000110: b94b 8e3a d165 9e3c f2f0 003c 0767 333c
00000120: 6691 683b d9e2 76ba eb64 e6bc 0101 9cbc
00000130: 865e aeba 4851 ab3a 7029 9f3c 75f5 a23c
00000140: acc5 8abb 83ff b0bb 4802 a73a a5b6 833b
00000150: 47fe 5c3c 4e63 213b c18f 923a 87df 943b
00000160: adba ce39 3a96 4fbd 9a94 e43c 690c 2d3c
00000170: e8e8 6e3b ae7b 023b 197f a53c dd5e 8a3a
00000180: 5520 833a cd35 ca39 d9ca 65bc 833a 8cbb
00000190: e938 8bba 952a 0bbc a6cc e1ba 21df dcba
000001a0: 4983 07bb e5aa 063d 7952 db3c f562 b73a
000001b0: 452b 62bc fb8c 48b9 cfe6 17bd daf2 023b
000001c0: 530b 643b 960e 3d3c 39ac 133b d47e 96bb
000001d0: 2254 c0ba b219 0f3a 2703 803b 296d 7f3c
000001e0: c92e 41b7 5a52 f5bc c70e c73c d759 383d
000001f0: 2314 c73b 6321 e739 4d1e 5bbb 725b 0fbd
00000200: 325d b9bc 8e05 1eb6 d59e a0bc 615f 7e3b
00000210: 4fed f335 9946 82bc ab49 18b7 b476 a3ba
00000220: bdd4 3636 280a a3ba 4f98 06b6 1066 e9bb
00000230: 570f ea3c 7b1e 813c f32f 89bc bd5a 15b6
00000240: 36f0 2a3c fe38 95bc 7069 77bc bee0 65ba
00000250: 827c ac3b 0b83 623a 9e91 50bc d646 2a3c
00000260: 61e6 f537 9b8d 873c 9783 2434 876b 48b5
00000270: 9537 0b3b 8419 203c db7d 513c 7865 5c3b
00000280: 6f69 b5bc 81de c637 de32 eeba 27d7 473c
00000290: 9cd9 e73c dc4c 6cb9 c614 9a3b 4c92 893b
000002a0: 4d1c c7bb 687c 80bb 9388 fbbb b674 cab7
000002b0: b3b7 a6b4 1ccf aa3c 1025 e733 63e4 2ebc
000002c0: dd78 103d 03c7 5ebc c657 17b7 37cd e8bb
000002d0: dec1 49bc 2cea 343c 6380 5c3c 0769 453c
000002e0: 8497 ca3c 2174 053c 921c 323b 8742 c93c
000002f0: 17c1 56bc e616 b634 1d32 a5bc 4a9e d63b
00000300: 818e 0dbc c6b7 303b 333d 533c 90d4 253c
00000310: 96aa 69b9 ad2d 3ebb 001e ce3b ec18 3dbc
00000320: 2267 b8bb 984b 6e3c 8f9a 443c e8ee c43a
00000330: 6745 11bd cbcc 123a c1dc ec3a 6b86 7c3c
00000340: 4f15 f6ba baab f73b 957c 0837 ef74 523c
00000350: 25f6 1137 7560 ce3b d3ad 9c3c 52d3 c337
00000360: 2d30 283b 64d3 023c eb44 133b 1aa2 273b
00000370: 8dcc 493c 3092 053c 342c 093d 6fdd 1dbc
00000380: 5750 47ba 44b7 a93c bd27 abbb 5cb6 e139
00000390: bbe4 623c 2d68 3e3c 5bb3 04bb 9fe5 653a
000003a0: 071d c239 2f4d 8bbb 1ffd 343c 4abe f33b
000003b0: 5c6d d93c 8731 f7bb 9cf7 b0b6 1eb7 2b3c
000003c0: bb53 a2bc f1ea 823c e616 36bc 26a5 69bb
000003d0: dc2b 1539 b028 5cba 45fa 753c e8fe 1b3a
000003e0: 9ecc 473b 1d0b 233b 79e0 87ba f93a d93b
000003f0: 4181 3d3b 192b 933a 40e1 b33b 28a6 b53b

e_conv5.bias f4 [32]
-0.008389968 0.0126454085 0.001466719 -0.026017854 0.037338912 -0.020310462 -0.015817534 -0.01991208
0.030799888 0.028577197 -0.013643823 -0.024540916 -0.011168981 -0.0036723241 -0.016309272 -0.013195067
-0.023329528 0.013576954 -0.02380681 0.0020905647 -0.018853145 -0.02001989 -0.017444514 -0.014452721
0.012621795 0.029523054 -0.0018862684 0.035220794 -0.009783554 0.0005005668 -0.024485257 -0.007695375
00000000: 1476 09bc b02e 4f3c ec3e c03a 6523 d5bc
00000010: b0f0 183d 2062 a6bc c693 81bc a91e a3bc
00000020: 0c50 fc3c ba1a ea3c 578a 5fbc 080a c9bc
00000030: 1afe 36bc 60ab 70bb 069b 85bc 1f30 58bc
00000040: 911d bfbc df71 5e3c 8006 c3bc db01 093b
00000050: e971 9abc c100 a4bc cce7 8ebc 1bcb 6cbc
00000060: a5cb 4e3c 55da f13c aa3c f7ba ae43 103d
00000070: 334b 20bc 7838 033a 4e95 c8bc 7c29 fcbb

e_conv6.weight f4 [32, 64, 3, 3]
-0.011974892 -0.042666383 -0.021303853 0.009448516 0.024243781 0.012898497 0.0034061137 -0.00020142866
0.0155805 0.035303846 -0.0135873975 0.008183289 0.03853335 -0.021229446 -0.0067707435 0.0041172807
-0.007160929 0.011556885 -8.432456e-06 0.005123831 0.023668682 0.0037714774 0.00047519762 -0.0029047003
0.012194937 -0.002889438 0.00092742144 0.0005567982 -0.0001293691 0.014494849 0.00077140215 0.0074452437
4.802405e-05 -0.010178577 0.008478627 -0.019965 0.0064984104 0.01204355 0.03779271 -0.011097327
-0.0054443106 0.0042290282 -0.0053048898 -0.014990095 -0.0014220279 -8.3850546e-07 -0.004650503 -0.008132271
-9.202966e-07 2.315302e-05 -0.00093053555 -2.187816e-06 0.008519015 -0.00011801904 0.00025259942 -0.043840397
0.0042430367 0.008550108 0.015960213 -2.4338186e-05 -0.006346179 -0.010810797 -1.4705648e-06 -0.062396448
-0.0069558118 -0.0155650135 -0.0035171048 0.0051483503 -0.014566057 0.023477457 0.04424861 0.0056884033
-0.0018866906 0.03111572 2.4109608e-05 -0.017465046 -0.00035717967 0.00033121638 -8.099799e-06 -0.0023123557
0.017361907 -6.1491806e-07 6.4188393e-06 9.266309e-06 -3.3029091e-06 0.011139499 0.0017212197 0.015230504
0.00046252014 0.009651576 0.016990326 -0.03540535 -0.00037505964 0.02072973 -0.012748826 -0.00965286
-0.01962212 0.021189451 0.015861072 1.4172608e-07 -0.00041399704 -0.00037513656 -0.0015785622 -0.0061757113
0.006055351 -0.007573481 -8.1423306e-05 -0.0035551302 0.012775484 0.009994776 -0.012497761 -0.0035471844
-0.0134483455 -0.02156274 0.003936816 -0.011294697 -0.016016098 -0.0044108126 0.0076211006 0.0031201544
0.03832696 0.0039689085 0.013556116 -0.00722527 0.05480487 0.03296904 0.029737117 0.0009160197
-0.014693462 0.008022651 -0.0030212915 -0.008052881 0.0074721873 -0.017576946 -0.01629814 -0.024222825
-0.010562948 3.3758895e-06 2.1737213e-05 0.018252231 1.684007e-05 -1.3791096e-06 0.0041877143 -0.00021913611
0.029363224 -0.0098406635 -0.008778765 -0.013648064 -0.0018208822 -0.0028199237 0.021480888 -0.0023452006
0.0057115764 0.004464921 4.593011e-06 -0.023600748 7.731e-05 2.931037e-06 -0.00851188 0.0024414344
0.0073776585 -0.0042790323 0.00047783297 -4.843831e-05 -0.0058014984 -2.5860963e-06 -0.00061413343 0.00023772655
0.0047372445 -1.7653676e-05 -0.0016262748 0.0034258696 0.006483769 -0.009802944 0.019227423 0.028513707
-0.015616659 -0.018876227 0.029487723 0.0066283727 0.010128167 -0.0149217015 0.01000944 -0.021920918
0.02246399 -0.024610175 -0.02239875 0.02737584 0.019059272 -0.033785187 0.0026149463 0.010296803
-0.020085609 0.0015729036 0.026443385 -0.004602058 0.026191646 0.030219683 -0.0025500047 -0.0042578066
-0.015660798 -0.0045529767 0.0670086 0.00010702108 0.018423818 0.0034598869 0.006496046 0.008370773
0.036227457 -0.011424856 0.013332924 0.022695918 -0.005256835 0.0112432055 0.0128197055 -0.0038063866
-0.010979357 0.042279314 0.024146622 -0.008110278 0.016931476 -0.0047257724 0.018690566 0.0026923772
0.037290808 0.005113728 -0.009014114 -0.008808119 0.018436983 0.03765812 -0.014953352 0.020672733
-0.00033389483 0.019234402 -0.0049405852 -2.2318667e-05 -0.0006320757 0.001117492 0.020289866 -0.0022516232
0.0008468537 0.006237327 4.1134725e-05 -0.028778337 -0.0127926795 -0.0011523815 0.0030878212 0.008473069
-0.01779532 0.00072755315 0.009464539 -0.01450845 -0.0023706066 -0.008386753 -0.0008215343 -0.01159226
00000000: 5632 44bc f2c2 2ebd 6b85 aebc f3cd 1a3c
00000010: e59a c63c 3854 533c 1b39 5f3b 9836 53b9
00000020: 5a45 7f3c c49a 103d ad9d 5ebc 3413 063c
00000030: 25d5 1d3d 60e9 adbc 1ddd ddbb 41ea 863b
00000040: 3aa6 eabb 1759 3d3c 1f79 0db7 cfe5 a73b
00000050: d3e4 c13c e42a 773b f223 f939 c95c 3ebb
00000060: 46cd 473c ba5c 3dbb 331e 733a 18f6 113a
00000070: 41a7 07b9 ce7b 6d3c ec37 4a3a 3bf7 f33b
00000080: 6e6d 4938 0cc4 26bc f0e9 0a3c a48d a3bc
00000090: 9ef0 d43b 4f52 453c 87cc 1a3d 90d1 35bc
000000a0: 3066 b2bb a993 8a3b a4d4 adbb 0499 75bc
000000b0: 5763 baba a815 61b5 3f63 98bb 373d 05bc
000000c0: 4d0a 77b5 bb38 c237 2fef 73ba 65d2 12b6
000000d0: 5793 0b3c fd80 f7b8 526f 8439 fd91 33bd
000000e0: 2c09 8b3b c115 0c3c febe 823c db29 ccb7
000000f0: 9cf3 cfbb c51f 31bc 3960 c5b5 6b93 7fbd
00000100: 94ed e3bb 6604 7fbc 3a7f 66bb 7eb3 a83b
00000110: 79a6 6ebc cc53 c03c 083e 353d c965 ba3b
00000120: d54a f7ba 65e6 fe3c fd3e ca37 db12 8fbc
00000130: d843 bbb9 1ca7 ad39 5fe4 07b7 e48a 17bb
00000140: 8f3a 8e3c d910 25b5 6961 d736 7e76 1b37
00000150: 8ca7 5db6 7282 363c 8d9a e13a 5d89 793c
00000160: 677e f239 a521 1e3c 4c2f 8b3c 3305 11bd
00000170: a7a3 c4b9 65d1 a93c 74e0 50bc 0827 1ebc
00000180: 91be a0bc 8095 ad3c 14ef 813c 5e2d 1834
00000190: be0d d9b9 faad c4b9 c2e7 ceba 9f5d cabb
000001a0: f76b c63b f72a f8bb cec1 aab8 30fd 68bb
000001b0: 4350 513c 21c1 233c 69c3 4cbc e177 68bb
000001c0: 7356 5cbc 58a4 b0bc 6800 813b 650d 39bc
000001d0: 3134 83bc 9488 90bb 6dba f93b 817b 4c3b
000001e0: bbfc 1c3d 9e0d 823b 791a 5e3c f5c1 ecbb
000001f0: 127b 603d 8b0a 073d 419b f33c 0b21 703a
00000200: d9bc 70bc 7071 033c dc00 46bb 3bf0 03bc
00000210: 40d9 f43b 87fd 8fbc ad83 85bc f26e c6bc
00000220: 3710 2dbc 578d 6236 4f58 b637 b485 953c
00000230: c643 8d37 d819 b9b5 1839 893b e7c7 65b9
00000240: 258b f03c bc3a 21bc cfd4 0fbc 219c 5fbc
00000250: abaa eeba 78ce 38bb b0f8 af3c f0b1 19bb
00000260: 2d28 bb3b 794e 923b aa1d 9a36 5b56 c1bc
00000270: 7d21 a238 d5b2 4436 6a75 0bbc 7900 203b
00000280: 49c0 f13b 2037 8cbb a885 fa39 3d2a 4bb8
00000290: 7f1a bebb cc8c 2db6 ccfd 20ba 3c46 7939
000002a0: e33a 9b3b fb16 94b7 ba28 d5ba 8e84 603b
000002b0: cc75 d43b 879c 20bc d482 9d3c 9495 e93c
000002c0: 04dd 7fbc 51a2 9abc 3d90 f13c d232 d93b
000002d0: 9df0 253c 277a 74bc a2fe 233c 7f93 b3bc
000002e0: 6706 b83c 479b c9bc 957d b7bc 4c43 e03c
000002f0: 3122 9c3c 5662 0abd 855f 2b3b ecb3 283c
00000300: 938a a4bc e329 ce3a cc9f d83c dccc 96bb
00000310: dd8f d63c 458f f73c fb1d 27bb 1285 8bbb
00000320: 134b 80bc 2331 95bb ce3b 893d 8170 e038
00000330: 8ced 963c 45bf 623b c9dc d43b 9125 093c
00000340: 3e63 143d 522f 3bbc 5672 5a3c caec b93c
00000350: 8741 acbb 6c35 383c be09 523c 9274 79bb
00000360: c3e2 33bc 132d 2d3d 23cf c53c f9e0 04bc
00000370: e1b3 8a3c a7da 9abb f51c 993c 9872 303b
00000380: 3fbe 183d 0f91 a73b efaf 13bc ee4f 10bc
00000390: 2809 973c 673f 1a3d e7fe 74bc dd59 a93c
000003a0: 9b0e afb9 7791 9d3c a2e4 a1bb f938 bbb7
000003b0: e2b1 25ba cf78 923a ef36 a63c f88f 13bb
000003c0: 64ff 5d3a 7e62 cc3b 1388 2c38 8cc0 ebbc
000003d0: 6398 51bc 820b 97ba 0b5d 4a3b a1d2 0a3c
000003e0: 7ec7 91bc 44b9 3e3a 2711 1b3c dab4 6dbc
000003f0: 2e5c 1bbb 9768 09bc 3c5c 57ba 76ed 3dbc

e_conv6.bias f4 [32]
-0.015301672 0.01488745 0.048901938 0.04758167 0.0020060085 0.009669853 -0.0065101217 0.017982326
0.015098887 -0.018762447 0.007776803 -0.024093322 -0.013036282 -0.035152793 0.04768509 0.005108021
0.034466002 -0.01640117 -8.9744506e-05 -0.020814735 0.029685337 -0.020285139 0.0124629075 -0.009869694
0.043593854 -0.021736732 0.02693434 0.037017353 -0.0067093205 -0.008486445 -0.028110664 0.005222288
00000000: ddb3 7abc 7eea 733c 664d 483d ffe4 423d
00000010: 3d77 033b 4e6e 1e3c dc52 d5bb ac4f 933c
00000020: 5261 773c b4b3 99bc 8dd4 fe3b 5c5f c5bc
00000030: 2196 55bc 60fc 0fbd 7151 433d 3061 a73b
00000040: 392c 0d3d bf5b 86bc 3735 bcb8 aa83 aabc
00000050: aa2e f33c 052d a6bc 3931 4c3c 7fb4 21bc
00000060: 788f 323d 3b11 b2bc 68a5 dc3c 829f 173d
00000070: dcd9 dbbb bb0a 0bbc 5648 e6bc ba1f ab3b
